public/models/mole_sniper.onnx (onnx, 331773 bytes, 4 tensors)

w1 f4 [324, 128]
0	0x3d4b7441	0.049671415
1	0xbc628840	-0.01382643
2	0x3d84a589	0.06476886
3	0x3e1bf550	0.15230298
4	0xbcbfd186	-0.023415338
5	0xbcbfce14	-0.023413695
6	0x3e21b61e	0.15792128
7	0x3d9d2baf	0.076743476
8	0xbd404bf5	-0.04694744
9	0x3d5e3b8b	0.054256003
10	0xbd3dd0de	-0.04634177
11	0xbd3ec34e	-0.046572976
12	0x3cc6372b	0.024196228
13	0xbe43eb7f	-0.19132803
14	0xbe30a1b0	-0.17249179
15	0xbd66501f	-0.056228753
16	0xbdcf6d85	-0.10128311
17	0x3d00b739	0.031424735
18	0xbdb9f69d	-0.09080241
19	0xbe109eb2	-0.14123037
20	0x3e16151b	0.14656489
21	0xbcb8f4b9	-0.02257763
22	0x3bdd46c3	0.00675282
23	0xbe11e4eb	-0.14247482
24	0xbd5efaab	-0.054438274
25	0x3c35bc4f	0.01109226
26	0xbdebb937	-0.11509936
27	0x3d19e2cb	0.037569802
28	0xbd760588	-0.06006387
29	0xbceef49d	-0.029169375
30	0xbd767583	-0.06017066
31	0x3e3dac5d	0.18522783
32	0xbab0e92c	-0.0013497225
33	0xbdd89e83	-0.10577109
34	0x3da8750b	0.08225449
35	0xbdfa075f	-0.12208437
36	0x3cab19df	0.02088636
37	0xbe48ab93	-0.195967
38	0xbe08019a	-0.13281861
39	0x3ca144cb	0.019686123
40	0x3d973ceb	0.07384666
41	0x3c8c6289	0.017136829
42	0xbc3d7a68	-0.011564828
43	0xbcf6aa05	-0.030110369
44	0xbe176691	-0.1478522
45	0xbd936c92	-0.071984425
46	0xbd3cad7a	-0.046063878
47	0x3dd87fa7	0.10571223
48	0x3d0cbefe	0.03436183
49	0xbe34890b	-0.17630403
50	0x3d04beab	0.032408398
51	0xbd1dbace	-0.03850823
52	0xbd8aa236	-0.067692205
53	0x3d7a8ae8	0.061167628
54	0x3dd32612	0.10309996
55	0x3dbeb9e7	0.09312802
56	0xbdabdf2b	-0.08392175
57	0xbcfd4e8a	-0.03092124
58	0x3d07af7d	0.033126343
59	0x3dc7caa9	0.09755451
60	0xbd44450f	-0.047917422
61	0xbc981783	-0.018565899
62	0xbde293d0	-0.11063349
63	0xbdf4fbad	-0.11962066
64	0x3da667c1	0.08125258
65	0x3e0ae105	0.135624
66	0xbbebf678	-0.007201012
67	0x3dcd8607	0.10035329
68	0x3d142049	0.036163602
69	0xbd841edb	-0.06451198
70	0x3d140713	0.03613956
71	0x3e1d7eb5	0.15380366
72	0xbb6aca1f	-0.003582604
73	0x3e203832	0.15646437
74	0xbe862186	-0.2619745
75	0x3da8535d	0.08219025
76	0x3c0e9e30	0.008704707
77	0xbcf4f263	-0.029900735
78	0x3c165743	0.009176078
79	0xbe4b86ed	-0.19875689
80	0xbcb3f489	-0.02196719
81	0x3d1245f7	0.035711255
82	0x3e17561b	0.1477894
83	0xbd544892	-0.05182702
84	0xbda5945a	-0.080849364
85	0xbd4d850a	-0.050175704
86	0x3dbb796f	0.09154021
87	0x3d06a80e	0.032875113
88	0xbd58fd62	-0.05297602
89	0x3d523bff	0.051326748
90	0x3c1f0d47	0.009707755
91	0x3dc660e5	0.0968645
92	0xbd8fc7cd	-0.07020531
93	0xbd0635de	-0.032766216
94	0xbd209b85	-0.039210815
95	0xbe15dd2b	-0.1463515
96	0x3cf294ed	0.029612029
97	0x3cd5db42	0.026105527
98	0x3a060bd4	0.0005113457
99	0xbcc02c7d	-0.023458714
100	0xbe10ef18	-0.14153707
101	0xbd2c4bdc	-0.042064533
102	0xbd0c6039	-0.034271453
103	0xbda44e6f	-0.080227725
104	0xbc842011	-0.016128572
105	0x3d257fce	0.040405087
106	0x3e41253b	0.18861859
107	0x3c8f039f	0.017457781
108	0x3cd2fc3b	0.025755038
109	0xbbf3f1c3	-0.0074445917
110	0xbe447b70	-0.19187713
111	0xbb2dc2e7	-0.0026513876
112	0x3bc55cc3	0.006023021
113	0x3e7c3c6a	0.24632421
114	0xbc9d9505	-0.019236097
115	0x3cf70710	0.030154735
116	0xbb637cb0	-0.003471177
117	0xbdef5863	-0.1168678
118	0x3dea0cd5	0.11428229
119	0x3d99fef3	0.07519331
120	0x3da200db	0.079103194
121	0xbdba3e18	-0.09093875
122	0x3e0fa56a	0.14027944
123	0xbe0f8caf	-0.1401851
124	0x3d70606d	0.05868571
125	0x3e604d7b	0.21904556
126	0xbdcadca2	-0.099053636
127	0xbd67f49f	-0.056629773
128	0x3c2344d0	0.009965137
129	0xbd4e3940	-0.050347567
130	0xbe1ec9b7	-0.15506636
131	0x3be0aacb	0.0068562976
132	0xbdd98f4f	-0.10623037
133	0x3d41fbc4	0.047359243
134	0xbdbc4c4f	-0.09194242
135	0x3e1eb69a	0.15499344
136	0xbda06908	-0.07832533
137	0xbd03ea99	-0.03220615
138	0x3da69bbb	0.08135172
139	0xbdfc14bd	-0.12308643
140	0x3cba55cf	0.022745995
141	0x3e05d9f7	0.13071428
142	0xbe249b36	-0.16074833
143	0x3c974087	0.018463386
144	0x3cd4e560	0.02598828
145	0x3da01e09	0.07818229
146	0xbdfd53d8	-0.123695076
147	0xbe0736fb	-0.13204567
148	0x3d55c98a	0.052194156
149	0x3cf34a33	0.029698467
150	0x3ccd3428	0.025049284
151	0x3d0de7bb	0.034644824
152	0xbd8b44e2	-0.06800248
153	0x3cbe4322	0.02322537
154	0x3cf015c0	0.029307246
155	0xbd924c97	-0.071435146
156	0x3e3f0e29	0.18657745
157	0x3d4214fc	0.047383294
158	0xbdf3fa9d	-0.11913035
159	0x3d867652	0.065655366
160	0xbdc79d64	-0.09746817
161	0x3da131e7	0.07870846
162	0x3ded47c7	0.11585956
163	0xbda81364	-0.082068235
164	0x3dc54ca7	0.09633761
165	0x3d291338	0.041278094
166	0x3da85ba1	0.08220602
167	0x3e423b4b	0.18967931
168	0xbcc9059f	-0.024538813
169	0xbd9a5d7b	-0.07537361
170	0xbdb62c2d	-0.088951446
171	0xbda713f4	-0.08158103
172	0xbbfca59a	-0.007710171
173	0x3d0bbc61	0.0341152
174	0x3ce2aa45	0.027669081
175	0x3da9683a	0.08271833
176	0x3aaa6b1c	0.0013001892
177	0x3e14d787	0.14535342
178	0xbcd8ce90	-0.026465684
179	0x3e8b45cd	0.2720169
180	0x3d8022fd	0.062566735
181	0xbdaf8bbe	-0.085715756
182	0xbddb519b	-0.107089244
183	0x3d459ee7	0.048247244
184	0xbcb70f8b	-0.022346279
185	0x3d923a31	0.071400054
186	0x3d41d690	0.047323763
187	0xbbeea552	-0.0072828913
188	0xbdad6c61	-0.08467937
189	0xbe1b1ed0	-0.15148473
190	0xbd36e47d	-0.044651497
191	0x3daf63f7	0.08563989
192	0x3caf62b7	0.021409376
193	0xbdff2097	-0.12457388
194	0x3c8ddeac	0.017318092
195	0x3d1dd375	0.03853174
196	0xbdb50396	-0.088385746
197	0x3c7bdcfb	0.01537251
198	0x3bbebd03	0.005820872
199	0xbdea1490	-0.11429703
200	0x3d128cba	0.03577874
201	0x3d65b285	0.056078453
202	0x3dddcf13	0.10830512
203	0x3dd7d193	0.1053802
204	0xbe0d12c7	-0.13776694
205	0xbdc0110b	-0.09378251
206	0x3d52f55d	0.051503528
207	0x3d52725d	0.051378597
208	0x3d52f6aa	0.05150477
209	0x3ec54286	0.38527316
210	0x3d69d635	0.05708905
211	0x3de89058	0.113556564
212	0x3dc3612b	0.09540018
213	0x3d8567aa	0.06513913
214	0xbd012260	-0.031526923
215	0x3d9b6fd9	0.075896926
216	0xbd9e464d	-0.077282526
217	0xbcc20077	-0.023681862
218	0xbd46ce0f	-0.048536357
219	0x3c062481	0.008187414
220	0x3e6d0563	0.23146586
221	0xbe3f353d	-0.18672653
222	0x3d8c8bcc	0.06862602
223	0xbe252461	-0.16127159
224	0xbd414da5	-0.04719319
225	0x3ddf0460	0.10889506
226	0x3bd2a1fd	0.006428002
227	0xbddcb8dd	-0.107774474
228	0xbd927e84	-0.07153037
229	0x3d8b2e7f	0.06795978
230	0xbd95943f	-0.07303666
231	0x3cb152a8	0.021645859
232	0x3b95546f	0.0045571844
233	0xbd8572a0	-0.065160036
234	0x3e5b8a35	0.2143944
235	0x3d81d39d	0.0633919
236	0xbe4f5fe7	-0.20251428
237	0x3c98be4e	0.018645432
238	0xbd8788ab	-0.06617864
239	0x3dae940f	0.08524334
240	0xbda24eea	-0.07925208
241	0xbc3bfbf3	-0.011473644
242	0x3d4ed7c2	0.05049873
243	0x3db14e82	0.08657552
244	0xbdf5d21a	-0.12002964
245	0xbd0902ff	-0.033450123
246	0xbd4289a0	-0.04749453
247	0xbd85cd45	-0.06533293
248	0x3e34c853	0.17654543
249	0x3d25e169	0.04049817
250	0xbe011d51	-0.1260884
251	0x3dbbfa67	0.0917862
252	0x3e594f0d	0.21221562
253	0x3dd372ea	0.103246525
254	0xbe1b955f	-0.151937
255	0xbd46579f	-0.048423406

b1 f4 [128]
0	0x00000000	0.0
1	0x00000000	0.0
2	0x00000000	0.0
3	0x00000000	0.0
4	0x00000000	0.0
5	0x00000000	0.0
6	0x00000000	0.0
7	0x00000000	0.0
8	0x00000000	0.0
9	0x00000000	0.0
10	0x00000000	0.0
11	0x00000000	0.0
12	0x00000000	0.0
13	0x00000000	0.0
14	0x00000000	0.0
15	0x00000000	0.0
16	0x00000000	0.0
17	0x00000000	0.0
18	0x00000000	0.0
19	0x00000000	0.0
20	0x00000000	0.0
21	0x00000000	0.0
22	0x00000000	0.0
23	0x00000000	0.0
24	0x00000000	0.0
25	0x00000000	0.0
26	0x00000000	0.0
27	0x00000000	0.0
28	0x00000000	0.0
29	0x00000000	0.0
30	0x00000000	0.0
31	0x00000000	0.0
32	0x00000000	0.0
33	0x00000000	0.0
34	0x00000000	0.0
35	0x00000000	0.0
36	0x00000000	0.0
37	0x00000000	0.0
38	0x00000000	0.0
39	0x00000000	0.0
40	0x00000000	0.0
41	0x00000000	0.0
42	0x00000000	0.0
43	0x00000000	0.0
44	0x00000000	0.0
45	0x00000000	0.0
46	0x00000000	0.0
47	0x00000000	0.0
48	0x00000000	0.0
49	0x00000000	0.0
50	0x00000000	0.0
51	0x00000000	0.0
52	0x00000000	0.0
53	0x00000000	0.0
54	0x00000000	0.0
55	0x00000000	0.0
56	0x00000000	0.0
57	0x00000000	0.0
58	0x00000000	0.0
59	0x00000000	0.0
60	0x00000000	0.0
61	0x00000000	0.0
62	0x00000000	0.0
63	0x00000000	0.0
64	0x00000000	0.0
65	0x00000000	0.0
66	0x00000000	0.0
67	0x00000000	0.0
68	0x00000000	0.0
69	0x00000000	0.0
70	0x00000000	0.0
71	0x00000000	0.0
72	0x00000000	0.0
73	0x00000000	0.0
74	0x00000000	0.0
75	0x00000000	0.0
76	0x00000000	0.0
77	0x00000000	0.0
78	0x00000000	0.0
79	0x00000000	0.0
80	0x00000000	0.0
81	0x00000000	0.0
82	0x00000000	0.0
83	0x00000000	0.0
84	0x00000000	0.0
85	0x00000000	0.0
86	0x00000000	0.0
87	0x00000000	0.0
88	0x00000000	0.0
89	0x00000000	0.0
90	0x00000000	0.0
91	0x00000000	0.0
92	0x00000000	0.0
93	0x00000000	0.0
94	0x00000000	0.0
95	0x00000000	0.0
96	0x00000000	0.0
97	0x00000000	0.0
98	0x00000000	0.0
99	0x00000000	0.0
100	0x00000000	0.0
101	0x00000000	0.0
102	0x00000000	0.0
103	0x00000000	0.0
104	0x00000000	0.0
105	0x00000000	0.0
106	0x00000000	0.0
107	0x00000000	0.0
108	0x00000000	0.0
109	0x00000000	0.0
110	0x00000000	0.0
111	0x00000000	0.0
112	0x00000000	0.0
113	0x00000000	0.0
114	0x00000000	0.0
115	0x00000000	0.0
116	0x00000000	0.0
117	0x00000000	0.0
118	0x00000000	0.0
119	0x00000000	0.0
120	0x00000000	0.0
121	0x00000000	0.0
122	0x00000000	0.0
123	0x00000000	0.0
124	0x00000000	0.0
125	0x00000000	0.0
126	0x00000000	0.0
127	0x00000000	0.0

w2 f4 [128, 320]
0	0xbd23ec33	-0.04002018
1	0xbc9560a9	-0.018234568
2	0x3dbe706f	0.09298789
3	0xbb96561b	-0.0045879013
4	0x3e06be6b	0.13158576
5	0xbd5379d2	-0.05162985
6	0x3d97d792	0.07414164
7	0xbd355a66	-0.044275664
8	0xbe3c21bb	-0.18372242
9	0xbdd1325f	-0.10214686
10	0x3c4b5fc8	0.012412973
11	0x3e44c2ea	0.19214979
12	0xbd3c3f3f	-0.045958754
13	0xbc8a9963	-0.016918844
14	0x3d489199	0.048966978
15	0xbd7585e2	-0.059942134
16	0xbd4625d1	-0.04837591
17	0x3bec4e02	0.0072114477
18	0xbd32d14c	-0.043656632
19	0xbe369417	-0.1782993
20	0xbd8527a3	-0.06501701
21	0x3d7bdf00	0.061491966
22	0x3d844d2b	0.06460031
23	0x3e08d491	0.13362338
24	0x3e00911f	0.1255536
25	0xbdb85bc2	-0.090018764
26	0xbd98a94b	-0.07454165
27	0xbd8f9f53	-0.070128106
28	0xbc792345	-0.015206163
29	0xbd7f4a9b	-0.06232701
30	0xbc8ef8f9	-0.017452704
31	0xbdb2a03e	-0.0872197
32	0x3da0a56f	0.07844054
33	0xbdc229d7	-0.094806366
34	0xbdcc4d80	-0.099757195
35	0x3d5515fa	0.05202291
36	0x3d93ed53	0.072230004
37	0xbcb86b96	-0.022512238
38	0x3db1f802	0.08689882
39	0x3da32e9f	0.07967877
40	0x3e4278c9	0.18991388
41	0x3d961a70	0.07329261
42	0x3e2ed14e	0.17072031
43	0x3bcaedf4	0.006192917
44	0x3e0f525c	0.13996261
45	0x3e117c8a	0.14207664
46	0xbc69a88a	-0.014261374
47	0xbd8d0359	-0.06885404
48	0xbd51fdf5	-0.051267583
49	0x3d2a08ed	0.04151242
50	0xbdeb75c2	-0.1149707
51	0xbd39d921	-0.045373086
52	0x3df5315a	0.11972304
53	0x3d88914e	0.0666834
54	0xbe70e905	-0.2352639
55	0xbe08768b	-0.1332647
56	0x3e5d11ea	0.21588865
57	0x3df1934f	0.11795675
58	0xbd6ec45a	-0.058292724
59	0xbe186a5b	-0.14884321
60	0xbdffe628	-0.12495071
61	0x3d508d68	0.050916106
62	0x3e4a6ffe	0.19769284
63	0x3e43eae6	0.19132575
64	0xbe2159a7	-0.15756856
65	0xbcf24bbb	-0.029577127
66	0xbdaf85fc	-0.08570477
67	0x3c606120	0.013695031
68	0xbe084cf6	-0.13310608
69	0xbd5f9135	-0.05458184
70	0xbdb19d76	-0.086726114
71	0x3d5677eb	0.052360456
72	0xbd52e2dd	-0.051485885
73	0xbd1808ce	-0.03711777
74	0x3d5145b0	0.05109185
75	0x3e2831b3	0.16425209
76	0x3e58a7ca	0.21157756
77	0x3d3ac865	0.045601267
78	0xbc111ea0	-0.008857399
79	0x3e06c8a3	0.13162474
80	0x3def090a	0.11671646
81	0x3db4984a	0.08818109
82	0xbe21b977	-0.15793405
83	0x3df76f30	0.12081754
84	0x3d12b823	0.035820138
85	0xbdb707be	-0.089370236
86	0xbd8999a8	-0.06718761
87	0x3d6e6682	0.058203228
88	0xbe80988d	-0.25116387
89	0xbc4d9343	-0.012547317
90	0xbd862825	-0.06550626
91	0xbd9b0581	-0.07569409
92	0xbd3b442d	-0.045719314
93	0xbe177d98	-0.14794004
94	0x3dd78c45	0.10524801
95	0xbe59e57d	-0.21278949
96	0x3c8aae2c	0.016928755
97	0xbdad9472	-0.08475579
98	0x3e4b1e53	0.19835787
99	0x3b14ad87	0.0022686438
100	0xbe596de5	-0.21233328
101	0x3d5ffa58	0.054682106
102	0xbddfc27d	-0.109257676
103	0x3dc9b48e	0.09848891
104	0x3d7d04eb	0.06177227
105	0x3e16cb35	0.14725955
106	0x3c993767	0.018703176
107	0x3da7c2fd	0.08191488
108	0x3b8c18c9	0.0042754156
109	0xbd7185af	-0.05896538
110	0x3dda4440	0.10657549
111	0xbdfc00cd	-0.1230484
112	0xbb6df168	-0.003630722
113	0xbd68e26b	-0.056856554
114	0x3dac75fb	0.084209405
115	0xbdc1e155	-0.09466807
116	0xbd277534	-0.040883258
117	0x3b8fe551	0.0043913503
118	0x3e1857c4	0.1487723
119	0xbd5a1e62	-0.05325163
120	0xbd243495	-0.04008921
121	0xbe0a0e4d	-0.13482018
122	0xbdc9513c	-0.09829947
123	0x3d292839	0.041298125
124	0x3b522a08	0.003206851
125	0x3b9d9fd9	0.004810315
126	0x3e324ce8	0.1741215
127	0xbe2b3dc3	-0.16722779
128	0x3e6d584f	0.23178218
129	0x3df14f87	0.11782747
130	0xbd0571df	-0.0325793
131	0x3d203fbb	0.039123278
132	0xbd8bd8bf	-0.068284504
133	0x3d02c207	0.03192332
134	0x3e5c24db	0.21498434
135	0xbd845c1e	-0.064628825
136	0xbcbe0f1b	-0.023200562
137	0xbd9afc58	-0.07567662
138	0xbd742b0b	-0.05961136
139	0xbd24f187	-0.0402694
140	0xbde03b8a	-0.10948856
141	0xbcd7f375	-0.026361207
142	0x3bb1b56f	0.00542324
143	0xbd252155	-0.04031499
144	0xbe6b6d68	-0.22990954
145	0xbc7cd58a	-0.015431771
146	0xbb9ae64f	-0.004727162
147	0x3e424eeb	0.18975417
148	0x3b2fc259	0.002681872
149	0x3dbf9ba8	0.09355861
150	0xbd2e5dda	-0.042569973
151	0x3e04eedd	0.12981744
152	0xbdc17143	-0.09445431
153	0x3d4ed7f5	0.05049892
154	0x3dac1b5a	0.084036544
155	0x3d8e0cf0	0.069360614
156	0x3e5d9be3	0.21641497
157	0xbd6f5b13	-0.058436465
158	0x3e10c57b	0.14137833
159	0x3decad17	0.11556452
160	0x3ba2176f	0.004946641
161	0x3e3c5720	0.1839261
162	0xbc701ef2	-0.014655815
163	0x3b1240f8	0.0022316556
164	0xba0fc013	-0.00054836384
165	0xbe025fcd	-0.12731858
166	0x3d9bf544	0.0761514
167	0x3d77f898	0.06053981
168	0xbc2b81b0	-0.010467932
169	0x3e347bc9	0.17625345
170	0xbd3315d9	-0.043722007
171	0xbe31219a	-0.17297974
172	0x3e42c930	0.1902206
173	0x3dcf1340	0.101110935
174	0x3d80369d	0.06260417
175	0xbd0b096d	-0.033944536
176	0x3d0c1ee7	0.03420916
177	0xbe01100f	-0.12603782
178	0xbcb86fe8	-0.022514299
179	0xbdb913c7	-0.09036975
180	0x3cd6887b	0.026188126
181	0x3dbd2058	0.09234685
182	0xbdd68dbb	-0.10476252
183	0x3d94764e	0.07249127
184	0x3ca3a23f	0.019974826
185	0x3d8c0d8f	0.068385236
186	0xbcc66e37	-0.024222476
187	0x3d902eaf	0.07040154
188	0xbd8e804e	-0.06958066
189	0xbe2c433b	-0.16822521
190	0xbe14e1f5	-0.14539321
191	0xbd4deedf	-0.050276633
192	0xbe251f56	-0.16125235
193	0x3e1ec217	0.15503727
194	0xbc07b5e8	-0.008283116
195	0x3dbc445c	0.09192726
196	0x3da1310d	0.07870684
197	0x3a2838b6	0.0006417142
198	0x3eb51207	0.35365316
199	0x3e95e53b	0.2927645
200	0x3e0e87a0	0.13918924
201	0xbdb961f4	-0.09051886
202	0x3e12bc5e	0.14329669
203	0xbe330cbb	-0.17485325
204	0x3e0f06df	0.13967465
205	0xbe82df9a	-0.2556122
206	0xbd02a504	-0.031895652
207	0x3df7a0ef	0.120912425
208	0x3d1dc725	0.038519997
209	0xbe1767f5	-0.1478575
210	0x3c8b8239	0.017029868
211	0x3d1df399	0.03856239
212	0x3ca7c29f	0.020478545
213	0xbd26d269	-0.040728007
214	0x3daf1ee5	0.085508145
215	0x3dea7a58	0.114491165
216	0xbc7ca000	-0.015419006
217	0x3e1b9cd7	0.15196548
218	0xbc800240	-0.015626073
219	0xbd48a0c2	-0.048981436
220	0x3e0af295	0.135691
221	0x3e073619	0.1320423
222	0xbd7dff1f	-0.06201088
223	0xbd9cb930	-0.07652509
224	0x3e34ac4b	0.1764385
225	0xbc28338c	-0.010266196
226	0x39ac4462	0.00032857346
227	0xbccea41f	-0.025224743
228	0x3e07553c	0.13216108
229	0x3e5b902b	0.21441714
230	0x3be5550a	0.006998663
231	0x3e779322	0.2417722
232	0xbd632055	-0.055450756
233	0xbce7abe3	-0.028280204
234	0x3d89d92d	0.06730876
235	0xbda751d8	-0.08169907
236	0x3d873624	0.066021234
237	0xbd54601b	-0.051849466
238	0xbe1e1e53	-0.15441255
239	0xbe326eac	-0.1742503
240	0xbd049fe0	-0.03237903
241	0x3d2b0dc3	0.04176117
242	0xbe0b62c6	-0.13611898
243	0x3c924d56	0.017859142
244	0x3c949ee5	0.018142173
245	0xbc895517	-0.016764207
246	0xbdbdb205	-0.0926247
247	0x3cc4cd56	0.024023693
248	0xbc6933fa	-0.014233584
249	0x3dc90fa0	0.09817433
250	0xbe046226	-0.12928066
251	0x3c3ab85b	0.011396493
252	0xbe023c9b	-0.12718432
253	0xbcc23605	-0.0237074
254	0xbde045bb	-0.109508
255	0xbdbbdbda	-0.09172793

b2 f4 [320]
0	0x00000000	0.0
1	0x00000000	0.0
2	0x00000000	0.0
3	0x00000000	0.0
4	0x00000000	0.0
5	0x00000000	0.0
6	0x00000000	0.0
7	0x00000000	0.0
8	0x00000000	0.0
9	0x00000000	0.0
10	0x00000000	0.0
11	0x00000000	0.0
12	0x00000000	0.0
13	0x00000000	0.0
14	0x00000000	0.0
15	0x00000000	0.0
16	0x00000000	0.0
17	0x00000000	0.0
18	0x00000000	0.0
19	0x00000000	0.0
20	0x00000000	0.0
21	0x00000000	0.0
22	0x00000000	0.0
23	0x00000000	0.0
24	0x00000000	0.0
25	0x00000000	0.0
26	0x00000000	0.0
27	0x00000000	0.0
28	0x00000000	0.0
29	0x00000000	0.0
30	0x00000000	0.0
31	0x00000000	0.0
32	0x00000000	0.0
33	0x00000000	0.0
34	0x00000000	0.0
35	0x00000000	0.0
36	0x00000000	0.0
37	0x00000000	0.0
38	0x00000000	0.0
39	0x00000000	0.0
40	0x00000000	0.0
41	0x00000000	0.0
42	0x00000000	0.0
43	0x00000000	0.0
44	0x00000000	0.0
45	0x00000000	0.0
46	0x00000000	0.0
47	0x00000000	0.0
48	0x00000000	0.0
49	0x00000000	0.0
50	0x00000000	0.0
51	0x00000000	0.0
52	0x00000000	0.0
53	0x00000000	0.0
54	0x00000000	0.0
55	0x00000000	0.0
56	0x00000000	0.0
57	0x00000000	0.0
58	0x00000000	0.0
59	0x00000000	0.0
60	0x00000000	0.0
61	0x00000000	0.0
62	0x00000000	0.0
63	0x00000000	0.0
64	0x00000000	0.0
65	0x00000000	0.0
66	0x00000000	0.0
67	0x00000000	0.0
68	0x00000000	0.0
69	0x00000000	0.0
70	0x00000000	0.0
71	0x00000000	0.0
72	0x00000000	0.0
73	0x00000000	0.0
74	0x00000000	0.0
75	0x00000000	0.0
76	0x00000000	0.0
77	0x00000000	0.0
78	0x00000000	0.0
79	0x00000000	0.0
80	0x00000000	0.0
81	0x00000000	0.0
82	0x00000000	0.0
83	0x00000000	0.0
84	0x00000000	0.0
85	0x00000000	0.0
86	0x00000000	0.0
87	0x00000000	0.0
88	0x00000000	0.0
89	0x00000000	0.0
90	0x00000000	0.0
91	0x00000000	0.0
92	0x00000000	0.0
93	0x00000000	0.0
94	0x00000000	0.0
95	0x00000000	0.0
96	0x00000000	0.0
97	0x00000000	0.0
98	0x00000000	0.0
99	0x00000000	0.0
100	0x00000000	0.0
101	0x00000000	0.0
102	0x00000000	0.0
103	0x00000000	0.0
104	0x00000000	0.0
105	0x00000000	0.0
106	0x00000000	0.0
107	0x00000000	0.0
108	0x00000000	0.0
109	0x00000000	0.0
110	0x00000000	0.0
111	0x00000000	0.0
112	0x00000000	0.0
113	0x00000000	0.0
114	0x00000000	0.0
115	0x00000000	0.0
116	0x00000000	0.0
117	0x00000000	0.0
118	0x00000000	0.0
119	0x00000000	0.0
120	0x00000000	0.0
121	0x00000000	0.0
122	0x00000000	0.0
123	0x00000000	0.0
124	0x00000000	0.0
125	0x00000000	0.0
126	0x00000000	0.0
127	0x00000000	0.0
128	0x00000000	0.0
129	0x00000000	0.0
130	0x00000000	0.0
131	0x00000000	0.0
132	0x00000000	0.0
133	0x00000000	0.0
134	0x00000000	0.0
135	0x00000000	0.0
136	0x00000000	0.0
137	0x00000000	0.0
138	0x00000000	0.0
139	0x00000000	0.0
140	0x00000000	0.0
141	0x00000000	0.0
142	0x00000000	0.0
143	0x00000000	0.0
144	0x00000000	0.0
145	0x00000000	0.0
146	0x00000000	0.0
147	0x00000000	0.0
148	0x00000000	0.0
149	0x00000000	0.0
150	0x00000000	0.0
151	0x00000000	0.0
152	0x00000000	0.0
153	0x00000000	0.0
154	0x00000000	0.0
155	0x00000000	0.0
156	0x00000000	0.0
157	0x00000000	0.0
158	0x00000000	0.0
159	0x00000000	0.0
160	0x00000000	0.0
161	0x00000000	0.0
162	0x00000000	0.0
163	0x00000000	0.0
164	0x00000000	0.0
165	0x00000000	0.0
166	0x00000000	0.0
167	0x00000000	0.0
168	0x00000000	0.0
169	0x00000000	0.0
170	0x00000000	0.0
171	0x00000000	0.0
172	0x00000000	0.0
173	0x00000000	0.0
174	0x00000000	0.0
175	0x00000000	0.0
176	0x00000000	0.0
177	0x00000000	0.0
178	0x00000000	0.0
179	0x00000000	0.0
180	0x00000000	0.0
181	0x00000000	0.0
182	0x00000000	0.0
183	0x00000000	0.0
184	0x00000000	0.0
185	0x00000000	0.0
186	0x00000000	0.0
187	0x00000000	0.0
188	0x00000000	0.0
189	0x00000000	0.0
190	0x00000000	0.0
191	0x00000000	0.0
192	0x00000000	0.0
193	0x00000000	0.0
194	0x00000000	0.0
195	0x00000000	0.0
196	0x00000000	0.0
197	0x00000000	0.0
198	0x00000000	0.0
199	0x00000000	0.0
200	0x00000000	0.0
201	0x00000000	0.0
202	0x00000000	0.0
203	0x00000000	0.0
204	0x00000000	0.0
205	0x00000000	0.0
206	0x00000000	0.0
207	0x00000000	0.0
208	0x00000000	0.0
209	0x00000000	0.0
210	0x00000000	0.0
211	0x00000000	0.0
212	0x00000000	0.0
213	0x00000000	0.0
214	0x00000000	0.0
215	0x00000000	0.0
216	0x00000000	0.0
217	0x00000000	0.0
218	0x00000000	0.0
219	0x00000000	0.0
220	0x00000000	0.0
221	0x00000000	0.0
222	0x00000000	0.0
223	0x00000000	0.0
224	0x00000000	0.0
225	0x00000000	0.0
226	0x00000000	0.0
227	0x00000000	0.0
228	0x00000000	0.0
229	0x00000000	0.0
230	0x00000000	0.0
231	0x00000000	0.0
232	0x00000000	0.0
233	0x00000000	0.0
234	0x00000000	0.0
235	0x00000000	0.0
236	0x00000000	0.0
237	0x00000000	0.0
238	0x00000000	0.0
239	0x00000000	0.0
240	0x00000000	0.0
241	0x00000000	0.0
242	0x00000000	0.0
243	0x00000000	0.0
244	0x00000000	0.0
245	0x00000000	0.0
246	0x00000000	0.0
247	0x00000000	0.0
248	0x00000000	0.0
249	0x00000000	0.0
250	0x00000000	0.0
251	0x00000000	0.0
252	0x00000000	0.0
253	0x00000000	0.0
254	0x00000000	0.0
255	0x00000000	0.0
